…
125515/125515 [==============================] - 4s 35us/step - loss: 0.0078 - mean_absolute_error: 0.0658 - val_loss: 0.0217 - val_mean_absolute_error: 0.1066
Epoch 39/40
125515/125515 [==============================] - 4s 35us/step - loss: 0.0077 - mean_absolute_error: 0.0652 - val_loss: 0.0223 - val_mean_absolute_error: 0.1068
Epoch 40/40
125515/125515 [==============================] - 4s 36us/step - loss: 0.0076 - mean_absolute_error: 0.0645 - val_loss: 0.0232 - val_mean_absolute_error: 0.1081
_________________________________________________________________
Layer (type)                 Output Shape              Param #   
=================================================================
input_1 (InputLayer)         (None, 13, 512)           0         
_________________________________________________________________
conv1d_1 (Conv1D)            (None, 11, 128)           196736    
_________________________________________________________________
max_pooling1d_1 (MaxPooling1 (None, 5, 128)            0         
_________________________________________________________________
conv1d_2 (Conv1D)            (None, 3, 128)            49280     
_________________________________________________________________
global_max_pooling1d_1 (Glob (None, 128)               0         
_________________________________________________________________
dense_1 (Dense)              (None, 128)               16512     
_________________________________________________________________
dense_2 (Dense)              (None, 1)                 129       
=================================================================
Total params: 262,657
Trainable params: 262,657
Non-trainable params: 0
_________________________________________________________________


* <2018-11-30 Fri> Glove model, 1000 sample
In [23]: train_model(model, data)
Train on 18900 samples, validate on 2100 samples
Epoch 1/40
2018-11-30 14:14:00.026530: I tensorflow/core/platform/cpu_feature_guard.cc:141] Your CPU supports instructions that this TensorFlow binary was not compiled to use: AVX2 FMA
…
18900/18900 [==============================] - 4s 197us/step - loss: 0.0014 - mean_absolute_error: 0.0282 - pearson_correlation_f2: 0.9945 - val_loss: 0.0109 - val_mean_absolute_error: 0.0770 - val_pearson_correlation_f2: 0.9457
Epoch 40/40
18900/18900 [==============================] - 4s 192us/step - loss: 0.0013 - mean_absolute_error: 0.0281 - pearson_correlation_f2: 0.9948 - val_loss: 0.0095 - val_mean_absolute_error: 0.0684 - val_pearson_correlation_f2: 0.9448
_________________________________________________________________
Layer (type)                 Output Shape              Param #   
=================================================================
input_1 (InputLayer)         (None, 640)               0         
_________________________________________________________________
embedding_1 (Embedding)      (None, 640, 100)          10782500  
_________________________________________________________________
conv1d_1 (Conv1D)            (None, 636, 128)          64128     
_________________________________________________________________
max_pooling1d_1 (MaxPooling1 (None, 127, 128)          0         
_________________________________________________________________
conv1d_2 (Conv1D)            (None, 123, 128)          82048     
_________________________________________________________________
max_pooling1d_2 (MaxPooling1 (None, 24, 128)           0         
_________________________________________________________________
conv1d_3 (Conv1D)            (None, 20, 128)           82048     
_________________________________________________________________
global_max_pooling1d_1 (Glob (None, 128)               0         
_________________________________________________________________
dense_1 (Dense)              (None, 128)               16512     
_________________________________________________________________
dense_2 (Dense)              (None, 1)                 129       
=================================================================
Total params: 11,027,365
Trainable params: 244,865
Non-trainable params: 10,782,500
_________________________________________________________________

* <2018-11-30 Fri> GLove, 10000 sample

In [11]: (x_train, y_train), (x_val, y_val) = data

In [12]: x_train.shape
Out[12]: (189000, 640)

In [13]: y_train.shape
Out[13]: (189000,)
…
189000/189000 [==============================] - 37s 197us/step - loss: 0.0019 - mean_absolute_error: 0.0334 - pearson_correlation_f: 0.9910 - val_loss: 0.0088 - val_mean_absolute_error: 0.0654 - val_pearson_correlation_f: 0.9540
Epoch 40/40
189000/189000 [==============================] - 37s 198us/step - loss: 0.0018 - mean_absolute_error: 0.0332 - pearson_correlation_f: 0.9912 - val_loss: 0.0087 - val_mean_absolute_error: 0.0650 - val_pearson_correlation_f: 0.9530
_________________________________________________________________
Layer (type)                 Output Shape              Param #   
=================================================================
input_1 (InputLayer)         (None, 640)               0         
_________________________________________________________________
embedding_1 (Embedding)      (None, 640, 100)          17878200  
_________________________________________________________________
conv1d_1 (Conv1D)            (None, 636, 128)          64128     
_________________________________________________________________
max_pooling1d_1 (MaxPooling1 (None, 127, 128)          0         
_________________________________________________________________
conv1d_2 (Conv1D)            (None, 123, 128)          82048     
_________________________________________________________________
max_pooling1d_2 (MaxPooling1 (None, 24, 128)           0         
_________________________________________________________________
conv1d_3 (Conv1D)            (None, 20, 128)           82048     
_________________________________________________________________
global_max_pooling1d_1 (Glob (None, 128)               0         
_________________________________________________________________
dense_1 (Dense)              (None, 128)               16512     
_________________________________________________________________
dense_2 (Dense)              (None, 1)                 129       
=================================================================
Total params: 18,123,065
Trainable params: 244,865
Non-trainable params: 17,878,200
_________________________________________________________________
