…
125515/125515 [==============================] - 4s 35us/step - loss: 0.0078 - mean_absolute_error: 0.0658 - val_loss: 0.0217 - val_mean_absolute_error: 0.1066
Epoch 39/40
125515/125515 [==============================] - 4s 35us/step - loss: 0.0077 - mean_absolute_error: 0.0652 - val_loss: 0.0223 - val_mean_absolute_error: 0.1068
Epoch 40/40
125515/125515 [==============================] - 4s 36us/step - loss: 0.0076 - mean_absolute_error: 0.0645 - val_loss: 0.0232 - val_mean_absolute_error: 0.1081
_________________________________________________________________
Layer (type)                 Output Shape              Param #   
=================================================================
input_1 (InputLayer)         (None, 13, 512)           0         
_________________________________________________________________
conv1d_1 (Conv1D)            (None, 11, 128)           196736    
_________________________________________________________________
max_pooling1d_1 (MaxPooling1 (None, 5, 128)            0         
_________________________________________________________________
conv1d_2 (Conv1D)            (None, 3, 128)            49280     
_________________________________________________________________
global_max_pooling1d_1 (Glob (None, 128)               0         
_________________________________________________________________
dense_1 (Dense)              (None, 128)               16512     
_________________________________________________________________
dense_2 (Dense)              (None, 1)                 129       
=================================================================
Total params: 262,657
Trainable params: 262,657
Non-trainable params: 0
_________________________________________________________________


* <2018-11-30 Fri> Glove model, 1000 sample
In [23]: train_model(model, data)
Train on 18900 samples, validate on 2100 samples
Epoch 1/40
2018-11-30 14:14:00.026530: I tensorflow/core/platform/cpu_feature_guard.cc:141] Your CPU supports instructions that this TensorFlow binary was not compiled to use: AVX2 FMA
…
18900/18900 [==============================] - 4s 197us/step - loss: 0.0014 - mean_absolute_error: 0.0282 - pearson_correlation_f2: 0.9945 - val_loss: 0.0109 - val_mean_absolute_error: 0.0770 - val_pearson_correlation_f2: 0.9457
Epoch 40/40
18900/18900 [==============================] - 4s 192us/step - loss: 0.0013 - mean_absolute_error: 0.0281 - pearson_correlation_f2: 0.9948 - val_loss: 0.0095 - val_mean_absolute_error: 0.0684 - val_pearson_correlation_f2: 0.9448
_________________________________________________________________
Layer (type)                 Output Shape              Param #   
=================================================================
input_1 (InputLayer)         (None, 640)               0         
_________________________________________________________________
embedding_1 (Embedding)      (None, 640, 100)          10782500  
_________________________________________________________________
conv1d_1 (Conv1D)            (None, 636, 128)          64128     
_________________________________________________________________
max_pooling1d_1 (MaxPooling1 (None, 127, 128)          0         
_________________________________________________________________
conv1d_2 (Conv1D)            (None, 123, 128)          82048     
_________________________________________________________________
max_pooling1d_2 (MaxPooling1 (None, 24, 128)           0         
_________________________________________________________________
conv1d_3 (Conv1D)            (None, 20, 128)           82048     
_________________________________________________________________
global_max_pooling1d_1 (Glob (None, 128)               0         
_________________________________________________________________
dense_1 (Dense)              (None, 128)               16512     
_________________________________________________________________
dense_2 (Dense)              (None, 1)                 129       
=================================================================
Total params: 11,027,365
Trainable params: 244,865
Non-trainable params: 10,782,500
_________________________________________________________________

* <2018-11-30 Fri> GLove, 10000 sample

In [11]: (x_train, y_train), (x_val, y_val) = data

In [12]: x_train.shape
Out[12]: (189000, 640)

In [13]: y_train.shape
Out[13]: (189000,)
…
189000/189000 [==============================] - 37s 197us/step - loss: 0.0019 - mean_absolute_error: 0.0334 - pearson_correlation_f: 0.9910 - val_loss: 0.0088 - val_mean_absolute_error: 0.0654 - val_pearson_correlation_f: 0.9540
Epoch 40/40
189000/189000 [==============================] - 37s 198us/step - loss: 0.0018 - mean_absolute_error: 0.0332 - pearson_correlation_f: 0.9912 - val_loss: 0.0087 - val_mean_absolute_error: 0.0650 - val_pearson_correlation_f: 0.9530
_________________________________________________________________
Layer (type)                 Output Shape              Param #   
=================================================================
input_1 (InputLayer)         (None, 640)               0         
_________________________________________________________________
embedding_1 (Embedding)      (None, 640, 100)          17878200  
_________________________________________________________________
conv1d_1 (Conv1D)            (None, 636, 128)          64128     
_________________________________________________________________
max_pooling1d_1 (MaxPooling1 (None, 127, 128)          0         
_________________________________________________________________
conv1d_2 (Conv1D)            (None, 123, 128)          82048     
_________________________________________________________________
max_pooling1d_2 (MaxPooling1 (None, 24, 128)           0         
_________________________________________________________________
conv1d_3 (Conv1D)            (None, 20, 128)           82048     
_________________________________________________________________
global_max_pooling1d_1 (Glob (None, 128)               0         
_________________________________________________________________
dense_1 (Dense)              (None, 128)               16512     
_________________________________________________________________
dense_2 (Dense)              (None, 1)                 129       
=================================================================
Total params: 18,123,065
Trainable params: 244,865
Non-trainable params: 17,878,200
_________________________________________________________________

* <2018-11-30 Fri> Glove summary only, 10000 sample

In [57]: model = build_glove_summary_only_model(embedding_layer)

In [58]: train_model(model, data)
Train on 189000 samples, validate on 21000 samples
…
189000/189000 [==============================] - 9s 50us/step - loss: 0.0039 - mean_absolute_error: 0.0487 - pearson_correlation_f: 0.9802 - val_loss: 0.0141 - val_mean_absolute_error: 0.0859 - val_pearson_correlation_f: 0.9240
Epoch 40/40
189000/189000 [==============================] - 10s 50us/step - loss: 0.0039 - mean_absolute_error: 0.0483 - pearson_correlation_f: 0.9805 - val_loss: 0.0147 - val_mean_absolute_error: 0.0894 - val_pearson_correlation_f: 0.9256
_________________________________________________________________
Layer (type)                 Output Shape              Param #   
=================================================================
input_4 (InputLayer)         (None, 128)               0         
_________________________________________________________________
embedding_1 (Embedding)      (None, 128, 100)          16428100  
_________________________________________________________________
conv1d_16 (Conv1D)           (None, 126, 128)          38528     
_________________________________________________________________
max_pooling1d_11 (MaxPooling (None, 25, 128)           0         
_________________________________________________________________
conv1d_17 (Conv1D)           (None, 23, 128)           49280     
_________________________________________________________________
max_pooling1d_12 (MaxPooling (None, 4, 128)            0         
_________________________________________________________________
conv1d_18 (Conv1D)           (None, 2, 128)            49280     
_________________________________________________________________
global_max_pooling1d_3 (Glob (None, 128)               0         
_________________________________________________________________
dense_3 (Dense)              (None, 128)               16512     
_________________________________________________________________
dense_4 (Dense)              (None, 1)                 129       
=================================================================
Total params: 16,581,829
Trainable params: 153,729
Non-trainable params: 16,428,100
_________________________________________________________________

* <2018-11-30 Fri> UAE sentence encoder
In [3]: data = prepare_data_using_use()
loading USE preprocessed stories ..
padding sequence ..
concatenating ..
shuffling ..
splitting ..
…
18900/18900 [==============================] - 1s 50us/step - loss: 0.0017 - mean_absolute_error: 0.0319 - pearson_correlation_f: 0.9943 - val_loss: 0.0255 - val_mean_absolute_error: 0.1209 - val_pearson_correlation_f: 0.8589
Epoch 40/40
18900/18900 [==============================] - 1s 50us/step - loss: 0.0016 - mean_absolute_error: 0.0314 - pearson_correlation_f: 0.9944 - val_loss: 0.0238 - val_mean_absolute_error: 0.1192 - val_pearson_correlation_f: 0.8635
_________________________________________________________________
Layer (type)                 Output Shape              Param #   
=================================================================
input_1 (InputLayer)         (None, 128)               0         
_________________________________________________________________
embedding_1 (Embedding)      (None, 128, 100)          9801100   
_________________________________________________________________
conv1d_1 (Conv1D)            (None, 126, 128)          38528     
_________________________________________________________________
max_pooling1d_1 (MaxPooling1 (None, 25, 128)           0         
_________________________________________________________________
conv1d_2 (Conv1D)            (None, 23, 128)           49280     
_________________________________________________________________
max_pooling1d_2 (MaxPooling1 (None, 4, 128)            0         
_________________________________________________________________
conv1d_3 (Conv1D)            (None, 2, 128)            49280     
_________________________________________________________________
global_max_pooling1d_1 (Glob (None, 128)               0         
_________________________________________________________________
dense_1 (Dense)              (None, 128)               16512     
_________________________________________________________________
dense_2 (Dense)              (None, 1)                 129       
=================================================================
Total params: 9,954,829
Trainable params: 153,729
Non-trainable params: 9,801,100
_________________________________________________________________

* <2018-11-30 Fri> UAE, article based split

In [3]: data = prepare_data_using_use()
loading USE preprocessed stories ..
padding sequence ..
concatenating ..
splitting ..

In [4]: (x_train, y_train), (x_val, y_val) = data
…
90000/90000 [==============================] - 27s 294us/step - loss: 0.0412 - acc: 0.9859 - pearson_correlation_f: 0.9780 - val_loss: 0.5008 - val_acc: 0.9085 - val_pearson_correlation_f: 0.8351
Epoch 20/20
90000/90000 [==============================] - 24s 269us/step - loss: 0.0410 - acc: 0.9861 - pearson_correlation_f: 0.9783 - val_loss: 0.4883 - val_acc: 0.9096 - val_pearson_correlation_f: 0.8386
_________________________________________________________________
Layer (type)                 Output Shape              Param #   
=================================================================
input_1 (InputLayer)         (None, 640)               0         
_________________________________________________________________
embedding_1 (Embedding)      (None, 640, 100)          18154000  
_________________________________________________________________
conv1d_1 (Conv1D)            (None, 636, 128)          64128     
_________________________________________________________________
max_pooling1d_1 (MaxPooling1 (None, 127, 128)          0         
_________________________________________________________________
conv1d_2 (Conv1D)            (None, 123, 128)          82048     
_________________________________________________________________
max_pooling1d_2 (MaxPooling1 (None, 24, 128)           0         
_________________________________________________________________
conv1d_3 (Conv1D)            (None, 20, 128)           82048     
_________________________________________________________________
global_max_pooling1d_1 (Glob (None, 128)               0         
_________________________________________________________________
dense_1 (Dense)              (None, 128)               16512     
_________________________________________________________________
dense_2 (Dense)              (None, 1)                 129       
=================================================================
Total params: 18,398,865
Trainable params: 244,865
Non-trainable params: 18,154,000
_________________________________________________________________

* <2018-12-02 Sun> negative sampling (1 sample), 10000 samplings, binary glove model
In [15]: res = concatenate_data(articles, reference_summaries,
    ...:                        reference_labels,
…
18000/18000 [==============================] - 6s 309us/step - loss: 0.0444 - acc: 0.9852 - pearson_correlation_f: 0.9778 - val_loss: 1.0149 - val_acc: 0.7870 - val_pearson_correlation_f: 0.6126
Epoch 20/20
18000/18000 [==============================] - 6s 317us/step - loss: 0.0396 - acc: 0.9879 - pearson_correlation_f: 0.9813 - val_loss: 1.1600 - val_acc: 0.7870 - val_pearson_correlation_f: 0.6021
_________________________________________________________________
Layer (type)                 Output Shape              Param #   
=================================================================
input_1 (InputLayer)         (None, 640)               0         
_________________________________________________________________
embedding_1 (Embedding)      (None, 640, 100)          8946400   
_________________________________________________________________
conv1d_1 (Conv1D)            (None, 636, 128)          64128     
_________________________________________________________________
max_pooling1d_1 (MaxPooling1 (None, 127, 128)          0         
_________________________________________________________________
conv1d_2 (Conv1D)            (None, 123, 128)          82048     
_________________________________________________________________
max_pooling1d_2 (MaxPooling1 (None, 24, 128)           0         
_________________________________________________________________
conv1d_3 (Conv1D)            (None, 20, 128)           82048     
_________________________________________________________________
global_max_pooling1d_1 (Glob (None, 128)               0         
_________________________________________________________________
dense_1 (Dense)              (None, 128)               16512     
_________________________________________________________________
dense_2 (Dense)              (None, 1)                 129       
=================================================================
Total params: 9,191,265
Trainable params: 244,865
Non-trainable params: 8,946,400
_________________________________________________________________

* <2018-12-02 Sun> negative sampling (5 sample), 10000 samplings, binary glove model

In [21]: (x_train, y_train), (x_val, y_val) = data

In [22]: x_train.shape
Out[22]: (54000, 640)
…
54000/54000 [==============================] - 15s 273us/step - loss: 0.0317 - acc: 0.9892 - pearson_correlation_f: 0.9692 - val_loss: 0.7058 - val_acc: 0.8788 - val_pearson_correlation_f: 0.5801
Epoch 20/20
54000/54000 [==============================] - 16s 304us/step - loss: 0.0301 - acc: 0.9893 - pearson_correlation_f: 0.9700 - val_loss: 0.7259 - val_acc: 0.8785 - val_pearson_correlation_f: 0.5848
_________________________________________________________________
Layer (type)                 Output Shape              Param #   
=================================================================
input_1 (InputLayer)         (None, 640)               0         
_________________________________________________________________
embedding_1 (Embedding)      (None, 640, 100)          8909600   
_________________________________________________________________
conv1d_1 (Conv1D)            (None, 636, 128)          64128     
_________________________________________________________________
max_pooling1d_1 (MaxPooling1 (None, 127, 128)          0         
_________________________________________________________________
conv1d_2 (Conv1D)            (None, 123, 128)          82048     
_________________________________________________________________
max_pooling1d_2 (MaxPooling1 (None, 24, 128)           0         
_________________________________________________________________
conv1d_3 (Conv1D)            (None, 20, 128)           82048     
_________________________________________________________________
global_max_pooling1d_1 (Glob (None, 128)               0         
_________________________________________________________________
dense_1 (Dense)              (None, 128)               16512     
_________________________________________________________________
dense_2 (Dense)              (None, 1)                 129       
=================================================================
Total params: 9,154,465
Trainable params: 244,865
Non-trainable params: 8,909,600
_________________________________________________________________

* <2018-12-02 Sun> negative sampling (5 sample), 20000 samplings, binary glove model

In [27]: model = build_binary_glove_model(embedding_layer)

In [28]: train_binary_model(model, data)
…
108000/108000 [==============================] - 21s 196us/step - loss: 0.0326 - acc: 0.9892 - pearson_correlation_f: 0.9691 - val_loss: 0.4088 - val_acc: 0.9196 - val_pearson_correlation_f: 0.7471
Epoch 20/20
108000/108000 [==============================] - 21s 198us/step - loss: 0.0319 - acc: 0.9894 - pearson_correlation_f: 0.9702 - val_loss: 0.4222 - val_acc: 0.9193 - val_pearson_correlation_f: 0.7462
_________________________________________________________________
Layer (type)                 Output Shape              Param #   
=================================================================
input_1 (InputLayer)         (None, 640)               0         
_________________________________________________________________
embedding_1 (Embedding)      (None, 640, 100)          12164200  
_________________________________________________________________
conv1d_1 (Conv1D)            (None, 636, 128)          64128     
_________________________________________________________________
max_pooling1d_1 (MaxPooling1 (None, 127, 128)          0         
_________________________________________________________________
conv1d_2 (Conv1D)            (None, 123, 128)          82048     
_________________________________________________________________
max_pooling1d_2 (MaxPooling1 (None, 24, 128)           0         
_________________________________________________________________
conv1d_3 (Conv1D)            (None, 20, 128)           82048     
_________________________________________________________________
global_max_pooling1d_1 (Glob (None, 128)               0         
_________________________________________________________________
dense_1 (Dense)              (None, 128)               16512     
_________________________________________________________________
dense_2 (Dense)              (None, 1)                 129       
=================================================================
Total params: 12,409,065
Trainable params: 244,865
Non-trainable params: 12,164,200
_________________________________________________________________

* <2018-12-02 Sun> negative sampling (1 sample), 20000 samplings, binary glove model
In [28]: model = build_binary_glove_model(embedding_layer)

In [29]: train_binary_model(model, data)
…
36000/36000 [==============================] - 7s 197us/step - loss: 0.0349 - acc: 0.9879 - pearson_correlation_f: 0.9818 - val_loss: 0.6541 - val_acc: 0.8775 - val_pearson_correlation_f: 0.7797
Epoch 20/20
36000/36000 [==============================] - 7s 194us/step - loss: 0.0354 - acc: 0.9874 - pearson_correlation_f: 0.9810 - val_loss: 0.8225 - val_acc: 0.8745 - val_pearson_correlation_f: 0.7744
_________________________________________________________________
Layer (type)                 Output Shape              Param #   
=================================================================
input_1 (InputLayer)         (None, 640)               0         
_________________________________________________________________
embedding_1 (Embedding)      (None, 640, 100)          12100100  
_________________________________________________________________
conv1d_1 (Conv1D)            (None, 636, 128)          64128     
_________________________________________________________________
max_pooling1d_1 (MaxPooling1 (None, 127, 128)          0         
_________________________________________________________________
conv1d_2 (Conv1D)            (None, 123, 128)          82048     
_________________________________________________________________
max_pooling1d_2 (MaxPooling1 (None, 24, 128)           0         
_________________________________________________________________
conv1d_3 (Conv1D)            (None, 20, 128)           82048     
_________________________________________________________________
global_max_pooling1d_1 (Glob (None, 128)               0         
_________________________________________________________________
dense_1 (Dense)              (None, 128)               16512     
_________________________________________________________________
dense_2 (Dense)              (None, 1)                 129       
=================================================================
Total params: 12,344,965
Trainable params: 244,865
Non-trainable params: 12,100,100
_________________________________________________________________

* <2018-12-04 Tue> Negative glove, 1 negative sample, 4,7000 samples
In [4]: with open(os.path.join(USE_DAN_DIR, 'story.pickle'), 'rb') as f:
   ...:     stories = pickle.load(f)
…
19044/19044 [==============================] - 3s 137us/step - loss: 0.1675 - acc: 0.9328 - pearson_correlation_f: 0.8976 - val_loss: 0.7375 - val_acc: 0.7569 - val_pearson_correlation_f: 0.5801
Epoch 20/20
19044/19044 [==============================] - 3s 136us/step - loss: 0.1525 - acc: 0.9409 - pearson_correlation_f: 0.9092 - val_loss: 0.8256 - val_acc: 0.7649 - val_pearson_correlation_f: 0.5738
_________________________________________________________________
Layer (type)                 Output Shape              Param #   
=================================================================
input_1 (InputLayer)         (None, 13, 4096)          0         
_________________________________________________________________
conv1d_1 (Conv1D)            (None, 11, 128)           1572992   
_________________________________________________________________
max_pooling1d_1 (MaxPooling1 (None, 5, 128)            0         
_________________________________________________________________
conv1d_2 (Conv1D)            (None, 3, 128)            49280     
_________________________________________________________________
global_max_pooling1d_1 (Glob (None, 128)               0         
_________________________________________________________________
dense_1 (Dense)              (None, 128)               16512     
_________________________________________________________________
dense_2 (Dense)              (None, 1)                 129       
=================================================================
Total params: 1,638,913
Trainable params: 1,638,913
Non-trainable params: 0
_________________________________________________________________

* <2018-12-04 Tue> USE, 10,000 samples, 1 negative sample
In [3]: d = USE_DAN_DIR

In [4]: with open(os.path.join(d, 'story.pickle'), 'rb') as f:
   ...:     stories = pickle.load(f)
with open(os.path.join(d, 'negative.pickle'), 'rb') as f:
…
166644/166644 [==============================] - 34s 205us/step - loss: 0.0405 - acc: 0.9864 - pearson_correlation_f: 0.9787 - val_loss: 0.3573 - val_acc: 0.9257 - val_pearson_correlation_f: 0.8689
Epoch 20/20
166644/166644 [==============================] - 33s 200us/step - loss: 0.0401 - acc: 0.9865 - pearson_correlation_f: 0.9790 - val_loss: 0.3736 - val_acc: 0.9282 - val_pearson_correlation_f: 0.8710
_________________________________________________________________
Layer (type)                 Output Shape              Param #   
=================================================================
input_1 (InputLayer)         (None, 640)               0         
_________________________________________________________________
embedding_1 (Embedding)      (None, 640, 100)          20000100  
_________________________________________________________________
conv1d_1 (Conv1D)            (None, 636, 128)          64128     
_________________________________________________________________
max_pooling1d_1 (MaxPooling1 (None, 127, 128)          0         
_________________________________________________________________
conv1d_2 (Conv1D)            (None, 123, 128)          82048     
_________________________________________________________________
max_pooling1d_2 (MaxPooling1 (None, 24, 128)           0         
_________________________________________________________________
conv1d_3 (Conv1D)            (None, 20, 128)           82048     
_________________________________________________________________
global_max_pooling1d_1 (Glob (None, 128)               0         
_________________________________________________________________
dense_1 (Dense)              (None, 128)               16512     
_________________________________________________________________
dense_2 (Dense)              (None, 1)                 129       
=================================================================
Total params: 20,244,965
Trainable params: 244,865
Non-trainable params: 20,000,100
_________________________________________________________________
* <2018-12-04 Tue> negative sampling, 10,000 samples, 1 negative sample, binary gloe

In [3]: keys = load_story_keys(10000)

In [4]: len(keys)
Out[4]: 10000

In [5]: tokenizer = create_tokenizer_by_key(keys)
…
18000/18000 [==============================] - 3s 185us/step - loss: 0.0387 - acc: 0.9872 - pearson_correlation_f: 0.9804 - val_loss: 1.2460 - val_acc: 0.7915 - val_pearson_correlation_f: 0.6307
Epoch 20/20
18000/18000 [==============================] - 3s 187us/step - loss: 0.0414 - acc: 0.9872 - pearson_correlation_f: 0.9802 - val_loss: 1.0004 - val_acc: 0.8010 - val_pearson_correlation_f: 0.6299
_________________________________________________________________
Layer (type)                 Output Shape              Param #   
=================================================================
input_1 (InputLayer)         (None, 640)               0         
_________________________________________________________________
embedding_1 (Embedding)      (None, 640, 100)          9005000   
_________________________________________________________________
conv1d_1 (Conv1D)            (None, 636, 128)          64128     
_________________________________________________________________
max_pooling1d_1 (MaxPooling1 (None, 127, 128)          0         
_________________________________________________________________
conv1d_2 (Conv1D)            (None, 123, 128)          82048     
_________________________________________________________________
max_pooling1d_2 (MaxPooling1 (None, 24, 128)           0         
_________________________________________________________________
conv1d_3 (Conv1D)            (None, 20, 128)           82048     
_________________________________________________________________
global_max_pooling1d_1 (Glob (None, 128)               0         
_________________________________________________________________
dense_1 (Dense)              (None, 128)               16512     
_________________________________________________________________
dense_2 (Dense)              (None, 1)                 129       
=================================================================
Total params: 9,249,865
Trainable params: 244,865
Non-trainable params: 9,005,000
_________________________________________________________________
